benchmarks/distributed/ft/pipeline_resnet50/swift.ckpt (torch, 40791 bytes, 5 tensors)

0.weight f4 [64, 3, 7, 7]
00000000: 1066 38bc 233a 3e3d 4b66 fdbc 8b84 b63b
00000010: 9086 6abd 1ad8 d73b d149 f4bc bdf8 cabc
00000020: ef4c 25bc 3320 e63c e746 81bd 8533 583b
00000030: 7b4d cab9 6e8b b23a f375 cd3a c1ad 11bc
00000040: 9f0b bfba e4b8 f73c eeb9 5ebb 2162 72bc
00000050: fb25 fb3c 5f81 233c 0a0c 80bc b253 3abb
00000060: d5e5 cbbc 654b 1bbd 5969 673d bd4a a43c
00000070: 6873 27bd e474 a6bc 6d83 96bb 43fa b33c
00000080: 3f16 0a3d ce7b 8a3c df72 20bc 4e10 34bd
00000090: 2516 c83c 1fd6 4a3d ba0b debc d2c7 5d3c
000000a0: 0070 87bb 2686 153d 6e96 323c 2909 3e3c
000000b0: 22b7 8d3c 74c1 3fbd 0054 5c3c 1c6a ff3c
000000c0: 4336 81bc 63f5 29bd 904a ecbc 2c1d 633b
000000d0: 14c9 093d 1fee 81bc 67bc 5bbd 56ea 1cbd
000000e0: e1cf 523d 3d09 773c cde9 62bd ac19 0b3d
000000f0: 02aa 993c a66d e43c 5adc b2bc 0014 4e3b
00000100: 5e3a 7b3c fb65 a8bc 515e efbc df04 543d
00000110: cf5c 95ba 2ea7 853c f635 f43c 2b1e c63c
00000120: 507a a2ba 2cb6 39bd ad7d 0fbc 69ba bb3c
00000130: 1505 4a3c c83f 5f3c acaa 423d 2a0c f6bc
00000140: 5c0a 93ba fbec 5a3b 0dd9 1bbd 978b ecbb
00000150: b186 a8bc 3ce3 483c 07d0 19bd dcff 423c
00000160: b543 ed3a aefe af3b 0275 ab3c 51ba 00bc
00000170: c267 03bc ccbf 09bc 6753 273c 1edf f2bc
00000180: 06ae 1ebd 163d 673d 65af 41bc e1f9 07bd
00000190: f934 05bb 2220 673d a191 ae3c 26b0 703c
000001a0: 9b1c 3fbd dba0 1c3b cf0e 17bc 29f6 20bb
000001b0: 5ab7 c13c 3d1d f8bb 93f8 863c 6dd9 9cbc
000001c0: 7fe4 2abd 393c 373c 00e7 3cbb b24d 86bc
000001d0: ccef 91bc 24e9 2ebd 9881 01bc 2151 89bc
000001e0: ee57 713b 3c16 94bc a8b1 a3bc 556b 8dbb
000001f0: 0c51 c23a dd46 aebc 869c 413d 158f f2bc
00000200: 992f 25bd f7ee fdbb 5bf5 d53b b700 9a3c
00000210: 06ff c7bc bf75 df3c 74a2 923c 7586 083d
00000220: e403 aeb6 d192 173d 1877 12bc 07f2 32bd
00000230: a079 2abc edfe 88bc 84bc ab3b 4f09 edbc
00000240: 8314 8bbc fa2d a53c f8ee 8bba 0295 0abd
00000250: 9c4b efb9 a0bc b7bc 0a2b 27bd e3e6 2a3d
00000260: fd4b 0fbd 819a 6fbb d30e 8fbc df01 b2ba
00000270: 9e39 4a39 c6b9 9cbc afdb e8bc 0dbb 30ba
00000280: 0e0e a53b 21c3 72bc 1f77 143c 477d 33bd
00000290: 5253 d03b aff7 843c 0584 a6bc e53d 443d
000002a0: 835c d1bb 5b15 343d 5340 ebba 572a b83c
000002b0: 1def 73bc 5e4f 313c 880d 5cbc df4e 763d
000002c0: dd25 cb3b b5fc b1bc 812f 373c 7dfd b73c
000002d0: c275 72bc 247f 013c df42 7b3c 0135 0d3d
000002e0: 3ceb 973c 9bed e73c 70a6 b03c f60c 843c
000002f0: 8c00 3dbc 7465 ab3c f866 283d 6061 c7bc
00000300: 8a97 c13b ab2e 2cbd e2b8 fb3c d585 e23c
00000310: f968 983c bf20 ea3b 961f adbb c622 8b3c
00000320: 46db 72bc 5d56 533c 2a3f 36bd dcfd d5bc
00000330: c7b8 b13c c84d aabc a5e8 d63c bebe c2bc
00000340: 0c7f c9bc 2d21 43bb baee 1ebd dac3 be3c
00000350: 8631 183b b98b 24bc f30c 21bc 561a 6abc
00000360: 1ff3 6a3a 1bc9 0a3d 7158 bf3b 96e3 3cbc
00000370: 8df8 1ebc 4bd2 80bc db35 ebbc 1488 933c
00000380: 5d2d 143d 8f6f 193d ab21 cf3b fcfe 983c
00000390: dd50 0c3d ed35 a4bb f19f 70bd 75cb 20bc
000003a0: 4832 09bd b7e9 843c e226 44bb d86b 703b
000003b0: 0a40 7d3c 7370 3d3c 019e 13bd f1f4 873d
000003c0: 97e1 133b 873e a43c 95ce e0bc 103e 9aba
000003d0: 2fcd 813c a122 62bb 539a c03b 84b3 4a3d
000003e0: ed6b a33b f08a 333d 1092 283c d923 1ebd
000003f0: cc61 00bd 6e41 9ebc 18d2 023a c6f3 eabc
-0.011254802 0.046442162 -0.030932566 0.0055699996 -0.057257235 0.0065870406 -0.029820355 -0.02477681
-0.010089143 0.028091526 -0.06312352 0.0032989692 -0.0003858617 0.0013621876 0.001567541 -0.008891524
-0.0014575607 0.03023953 -0.0033985334 -0.014793904 0.030657759 0.009979575 -0.01563074 -0.0028431234
-0.024889866 -0.0379137 0.05649695 0.02005517 -0.040881544 -0.02031941 -0.004593304 0.02196992
0.03371262 0.016904738 -0.009793012 -0.04396086 0.024424622 0.049520608 -0.027105201 0.01353641
-0.0041332245 0.036504887 0.010900123 0.011598864 0.017299239 -0.04681535 0.013447762 0.031178527
-0.015772944 -0.041493785 -0.028844148 0.003465484 0.03363903 -0.015860615 -0.05364647 -0.038309418
0.05146778 0.015077886 -0.05539875 0.03396003 0.018757824 0.027884316 -0.021833587 0.0031445026
0.01533374 -0.02055644 -0.029219778 0.051762458 -0.0011395457 0.016315069 0.029810887 0.024184307
-0.0012396071 -0.04533975 -0.008757991 0.022916036 0.012330313 0.0136260465 0.047526047 -0.030035097
-0.0011218297 0.0033405412 -0.038048793 -0.007218789 -0.020572038 0.012261208 -0.037551906 0.011901822
0.0018101843 0.0053709364 0.020929817 -0.007856921 -0.008020343 -0.008407544 0.010212756 -0.029647406
-0.03874018 0.05645474 -0.0118216025 -0.033197287 -0.0020325764 0.05642713 0.021309676 0.014690435
-0.04665814 0.0023899588 -0.009219839 -0.0024560785 0.023647 -0.007571845 0.016475951 -0.019146645
-0.041721817 0.011183792 -0.002882421 -0.01639447 -0.01781454 -0.04270281 -0.007904433 -0.016762318
0.0036826092 -0.018077008 -0.019982174 -0.0043157735 0.0014825179 -0.021274025 0.047268413 -0.029609242
-0.040328596 -0.007749434 0.006529493 0.018799169 -0.024413597 0.027277825 0.01789973 0.033331353
-5.186057e-06 0.03700525 -0.008939527 -0.043687847 -0.010404974 -0.01672312 0.0052409787 -0.028935103
-0.016977554 0.020163525 -0.0010676077 -0.03383351 -0.00045641966 -0.02242881 -0.04081253 0.041724097
-0.034984577 -0.0036560597 -0.017463123 -0.001358088 0.00019285685 -0.019131552 -0.028425066 -0.000674174
0.005037076 -0.01481703 0.009061604 -0.043820646 0.006357589 0.016231386 -0.020326624 0.04791059
-0.006389202 0.04396568 -0.0017948247 0.022481127 -0.014888552 0.010822145 -0.0134309605 0.06013381
0.006199582 -0.021726945 0.011180759 0.02245974 -0.014798583 0.007903848 0.0153357675 0.034474377
0.018544786 0.028311541 0.021563739 0.016119462 -0.011535775 0.0209224 0.041113824 -0.024338424
0.0059079574 -0.042036694 0.030727807 0.027651707 0.018604742 0.007145017 -0.0052833064 0.016984355
-0.014822787 0.012899009 -0.04449383 -0.026122026 0.021694554 -0.020789042 0.02623398 -0.023772594
-0.024596713 -0.0029774413 -0.038801886 0.023286749 0.0023222878 -0.010043078 -0.0098297475 -0.014288506
0.00089626195 0.033883195 0.0058394005 -0.01152887 -0.009702814 -0.015725276 -0.028712204 0.018009223
0.036176074 0.037459906 0.006321152 0.018676274 0.034256805 -0.0050113113 -0.058746282 -0.009814133
-0.033495218 0.016224725 -0.0029930403 0.0036685374 0.015457163 0.0115624545 -0.036039356 0.06638516
0.0022564882 0.020049347 -0.027442256 -0.0011767764 0.01584491 -0.0034505504 0.005877772 0.049487606
0.004987231 0.043833673 0.01028873 -0.038608406 -0.031343266 -0.019318309 0.0004990413 -0.028680693

1.weight f4 [64]
00000000: 0000 803f 0000 803f 0000 803f 0000 803f
00000010: 0000 803f 0000 803f 0000 803f 0000 803f
00000020: 0000 803f 0000 803f 0000 803f 0000 803f
00000030: 0000 803f 0000 803f 0000 803f 0000 803f
00000040: 0000 803f 0000 803f 0000 803f 0000 803f
00000050: 0000 803f 0000 803f 0000 803f 0000 803f
00000060: 0000 803f 0000 803f 0000 803f 0000 803f
00000070: 0000 803f 0000 803f 0000 803f 0000 803f
00000080: 0000 803f 0000 803f 0000 803f 0000 803f
00000090: 0000 803f 0000 803f 0000 803f 0000 803f
000000a0: 0000 803f 0000 803f 0000 803f 0000 803f
000000b0: 0000 803f 0000 803f 0000 803f 0000 803f
000000c0: 0000 803f 0000 803f 0000 803f 0000 803f
000000d0: 0000 803f 0000 803f 0000 803f 0000 803f
000000e0: 0000 803f 0000 803f 0000 803f 0000 803f
000000f0: 0000 803f 0000 803f 0000 803f 0000 803f
1.0 1.0 1.0 1.0 1.0 1.0 1.0 1.0
1.0 1.0 1.0 1.0 1.0 1.0 1.0 1.0
1.0 1.0 1.0 1.0 1.0 1.0 1.0 1.0
1.0 1.0 1.0 1.0 1.0 1.0 1.0 1.0
1.0 1.0 1.0 1.0 1.0 1.0 1.0 1.0
1.0 1.0 1.0 1.0 1.0 1.0 1.0 1.0
1.0 1.0 1.0 1.0 1.0 1.0 1.0 1.0
1.0 1.0 1.0 1.0 1.0 1.0 1.0 1.0

1.bias f4 [64]
00000000: 0000 0000 0000 0000 0000 0000 0000 0000
00000010: 0000 0000 0000 0000 0000 0000 0000 0000
00000020: 0000 0000 0000 0000 0000 0000 0000 0000
00000030: 0000 0000 0000 0000 0000 0000 0000 0000
00000040: 0000 0000 0000 0000 0000 0000 0000 0000
00000050: 0000 0000 0000 0000 0000 0000 0000 0000
00000060: 0000 0000 0000 0000 0000 0000 0000 0000
00000070: 0000 0000 0000 0000 0000 0000 0000 0000
00000080: 0000 0000 0000 0000 0000 0000 0000 0000
00000090: 0000 0000 0000 0000 0000 0000 0000 0000
000000a0: 0000 0000 0000 0000 0000 0000 0000 0000
000000b0: 0000 0000 0000 0000 0000 0000 0000 0000
000000c0: 0000 0000 0000 0000 0000 0000 0000 0000
000000d0: 0000 0000 0000 0000 0000 0000 0000 0000
000000e0: 0000 0000 0000 0000 0000 0000 0000 0000
000000f0: 0000 0000 0000 0000 0000 0000 0000 0000
0.0 0.0 0.0 0.0 0.0 0.0 0.0 0.0
0.0 0.0 0.0 0.0 0.0 0.0 0.0 0.0
0.0 0.0 0.0 0.0 0.0 0.0 0.0 0.0
0.0 0.0 0.0 0.0 0.0 0.0 0.0 0.0
0.0 0.0 0.0 0.0 0.0 0.0 0.0 0.0
0.0 0.0 0.0 0.0 0.0 0.0 0.0 0.0
0.0 0.0 0.0 0.0 0.0 0.0 0.0 0.0
0.0 0.0 0.0 0.0 0.0 0.0 0.0 0.0

1.running_mean f4 [64]
00000000: 8fec 2537 cea6 e7b6 dae2 82b7 70c7 6439
00000010: dd10 12b8 9cb3 3d37 0b62 58b7 72c7 f936
00000020: c29d 4638 92d7 f6b7 3a85 2438 92a0 9c38
00000030: 998c 3038 e6c5 2637 1d06 51b7 884d fab8
00000040: adca ecb6 fb86 4e37 56c4 6138 b8b6 d737
00000050: b5c2 a4b8 528e 46b8 b0f0 eb37 5951 86b7
00000060: 7786 90b8 ef05 3738 b974 0538 781b 4838
00000070: 322f 72b7 ba09 ad38 609e dab7 9ccc 96b6
00000080: 6d4c 9b36 a2f6 d8b6 3a96 1138 c2cd 0938
00000090: 965e 4d38 36e8 08b8 baf6 6434 16eb 1739
000000a0: c840 6136 f2f5 40b8 4414 0db8 3ddf 6cb8
000000b0: 1a5c a138 b250 6b37 de6a 5eb8 67f4 13b8
000000c0: d725 aab8 b6ad 7335 efb5 4537 e52e 43b8
000000d0: 26d9 b4b7 bde5 9db7 674b 23b8 d02a 01b7
000000e0: 9ac3 c138 37f9 2a38 2f22 3f38 168b f938
000000f0: 3227 fb37 9eb8 3139 c872 e6b6 8658 8f38
9.8898445e-06 -6.903755e-06 -1.5602844e-05 0.0002181807 -3.4824818e-05 1.1307096e-05 -1.2897431e-05 7.4439968e-06
4.7353802e-05 -2.9425868e-05 3.9224724e-05 7.468568e-05 4.209261e-05 9.940448e-06 -1.2458794e-05 -0.0001193537
-7.0569426e-06 1.2309984e-05 5.3827032e-05 2.5715082e-05 -7.8563964e-05 -4.7339425e-05 2.8126262e-05 -1.6011925e-05
-6.891501e-05 4.3636126e-05 3.1818377e-05 4.7709298e-05 -1.4435313e-05 8.2510946e-05 -2.6061374e-05 -4.494168e-06
4.628257e-06 -6.4660135e-06 3.4710603e-05 3.2854972e-05 4.89639e-05 -3.264119e-05 2.1323913e-07 0.00014488059
3.356532e-06 -4.600542e-05 -3.3635893e-05 -5.647469e-05 7.6942335e-05 1.402588e-05 -5.3028452e-05 -3.527515e-05
-8.11328e-05 9.0777337e-07 1.1784475e-05 -4.6535297e-05 -2.155879e-05 -1.8822839e-05 -3.8932452e-05 -7.698967e-06
9.239391e-05 4.0763258e-05 4.5569785e-05 0.00011899152 2.9939783e-05 0.0001694881 -6.8678964e-06 6.83526e-05

1.running_var f4 [64]
00000000: 7900 693f e095 683f 15e1 683f e3a6 683f
00000010: eac5 693f 2ead 683f 54ca 683f 93d6 683f
00000020: 1dbe 683f 53c0 683f 8a62 683f abf6 683f
00000030: 778c 683f e2a1 683f 498c 683f 99b2 683f
00000040: 2a44 683f 7696 683f 82d5 683f df76 683f
00000050: a2c9 683f d888 683f 0fac 683f 3b22 693f
00000060: 9ebc 683f ca8f 683f 0ed2 683f 7168 693f
00000070: a3a4 683f 6cae 683f cbb4 683f fe9c 683f
00000080: 618f 693f a780 683f 5162 683f 4f89 683f
00000090: f915 693f 1c1a 693f 90fd 683f 2fae 683f
000000a0: 35ec 683f 3b06 693f 63d2 683f da99 683f
000000b0: 53bb 683f f0cf 683f 4a5c 683f d592 683f
000000c0: 7aa7 683f f6d3 683f 1ac5 683f f05a 693f
000000d0: da3e 693f e1fb 683f 636b 683f d799 683f
000000e0: 0037 693f f50f 693f 5033 693f ff7d 683f
000000f0: 89ba 683f d1f8 683f f7ef 683f 7151 683f
0.91016346 0.9085369 0.9096845 0.9087965 0.9131762 0.9088925 0.9093373 0.90952414
0.9091509 0.90918463 0.9077536 0.91001385 0.9083933 0.90872014 0.9083906 0.9089752
0.9072901 0.90854585 0.9095079 0.9080638 0.9093267 0.90833807 0.9088754 0.91067857
0.90912807 0.90844405 0.9094552 0.9117499 0.90876216 0.90891147 0.9090087 0.9086455
0.91234404 0.9082131 0.9077502 0.90834516 0.9104915 0.91055465 0.91011906 0.90890783
0.90985423 0.9102513 0.90946025 0.9085976 0.90910834 0.9094229 0.9076582 0.9084905
0.9088055 0.90948427 0.90925753 0.91154385 0.9111153 0.91009337 0.9078886 0.9085974
0.9109955 0.91039973 0.9109392 0.90817255 0.9090963 0.91004664 0.9099116 0.9074927
